…
mode=RL  --train_path_indices=[[0, 5], [0, 5], [0, 5], [0, 5], [0, 50], [0, 50], [0, 50]]  --train_sample_size_li=[None]  --train_subgroup=list  --train_subgroup_list=['dense_64']  --use_NN_for_u_score=False  --use_is_early_pruning=False  --use_node_mask_diameter=False  --user=kli16  --val_dataset=imsm-dblp_unlabeled  --val_every_games=1  --val_path_indices=[95, 100]  --val_sample_size_li=[None]  --val_subgroup=dense_64  --val_subgroup_list=None

model:
DVN_wrapper(
  (dvn): DVN(
    (pre_encoder): PreEncoderConcatSelectedOneHotAndMLP(
      (lap_encoder_q): LapPENodeEncoder(
        (linear_A): Linear(in_features=2, out_features=32, bias=True)
        (pe_encoder): Sequential(
          (0): ReLU()
          (1): Linear(in_features=32, out_features=16, bias=True)
          (2): ReLU()
        )
      )
      (lap_encoder_t): LapPENodeEncoder(
        (linear_A): Linear(in_features=2, out_features=32, bias=True)
        (pe_encoder): Sequential(
          (0): ReLU()
          (1): Linear(in_features=32, out_features=16, bias=True)
          (2): ReLU()
        )
      )
      (mlp_q): Linear(in_features=29, out_features=16, bias=True)
      (mlp_t): Linear(in_features=29, out_features=16, bias=True)
    )
    (encoder): GNNConsensusEncoder(
      (gnn_wrapper_li): ModuleList(
        (0-3): 4 x GNNWrapper(
          (gnnm): OurGMNCustomWrapper(
            (gmn_inter): OurGMNCustomInter(
              (transformer_conv): TransformerConv(32, 32, heads=4)
            )
            (gmn_intra): OurGMNCustomIntra(
              (gnn_t): GPSLayer(
                summary: dim_h=32, local_gnn_type=CustomGatedGCN, global_model_type=Transformer, heads=4
                (local_model): GatedGCNLayer()
                (self_attn): MultiheadAttention(
                  (out_proj): NonDynamicallyQuantizableLinear(in_features=32, out_features=32, bias=True)
                )
                (norm1_local): LayerNorm(32, affine=True, mode=graph)
                (norm1_attn): LayerNorm(32, affine=True, mode=graph)
                (dropout_local): Dropout(p=0.0, inplace=False)
                (dropout_attn): Dropout(p=0.0, inplace=False)
                (ff_linear1): Linear(in_features=32, out_features=64, bias=True)
                (ff_linear2): Linear(in_features=64, out_features=32, bias=True)
                (act_fn_ff): ReLU()
                (norm2): LayerNorm(32, affine=True, mode=graph)
                (ff_dropout1): Dropout(p=0.0, inplace=False)
                (ff_dropout2): Dropout(p=0.0, inplace=False)
              )
              (gnn_q): GPSLayer(
                summary: dim_h=32, local_gnn_type=CustomGatedGCN, global_model_type=Transformer, heads=4
                (local_model): GatedGCNLayer()
                (self_attn): MultiheadAttention(
                  (out_proj): NonDynamicallyQuantizableLinear(in_features=32, out_features=32, bias=True)
                )
                (norm1_local): LayerNorm(32, affine=True, mode=graph)
                (norm1_attn): LayerNorm(32, affine=True, mode=graph)
                (dropout_local): Dropout(p=0.0, inplace=False)
                (dropout_attn): Dropout(p=0.0, inplace=False)
                (ff_linear1): Linear(in_features=32, out_features=64, bias=True)
                (ff_linear2): Linear(in_features=64, out_features=32, bias=True)
                (act_fn_ff): ReLU()
                (norm2): LayerNorm(32, affine=True, mode=graph)
                (ff_dropout1): Dropout(p=0.0, inplace=False)
                (ff_dropout2): Dropout(p=0.0, inplace=False)
              )
            )
          )
        )
      )
      (jk): JumpingKnowledge(max)
    )
    (gt_egde_encoder): DummyEdgeEncoder(
      (encoder): Embedding(1, 32)
    )
    (gq_egde_encoder): DummyEdgeEncoder(
      (encoder): Embedding(1, 32)
    )
    (decoder_policy): BilinearDecoder(
      (encoder): MLP(
        (activation): ELU(alpha=1.0)
        (layers): ModuleList(
          (0): Linear(in_features=32, out_features=32, bias=True)
        )
      )
      (decoder): MLP(
        (activation): ELU(alpha=1.0)
        (layers): ModuleList(
          (0): Linear(in_features=96, out_features=32, bias=True)
          (1): Linear(in_features=32, out_features=16, bias=True)
          (2): Linear(in_features=16, out_features=8, bias=True)
          (3): Linear(in_features=8, out_features=1, bias=True)
        )
      )
    )
    (decoder_value): QueryDecoder(
      (mlp_att): MLP(
        (activation): ELU(alpha=1.0)
        (layers): ModuleList(
          (0): Linear(in_features=32, out_features=8, bias=True)
          (1): Linear(in_features=8, out_features=1, bias=True)
        )
      )
      (mlp_val): MLP(
        (activation): ELU(alpha=1.0)
        (layers): ModuleList(
          (0): Linear(in_features=32, out_features=32, bias=True)
        )
      )
      (mlp_final): MLP(
        (activation): ELU(alpha=1.0)
        (layers): ModuleList(
          (0): Linear(in_features=32, out_features=32, bias=True)
          (1): Linear(in_features=32, out_features=16, bias=True)
          (2): Linear(in_features=16, out_features=8, bias=True)
          (3): Linear(in_features=8, out_features=4, bias=True)
          (4): Linear(in_features=4, out_features=1, bias=True)
        )
      )
      (norm): NormalizeAttention()
    )
    (norm_li): ModuleList(
      (0-3): 4 x LayerNorm((32,), eps=1e-05, elementwise_affine=True)
    )
  )
  (mlp_final): MLP(
    (activation): ELU(alpha=1.0)
    (layers): ModuleList(
      (0): Linear(in_features=64, out_features=32, bias=True)
      (1): Linear(in_features=32, out_features=16, bias=True)
      (2): Linear(in_features=16, out_features=8, bias=True)
      (3): Linear(in_features=8, out_features=4, bias=True)
      (4): Linear(in_features=4, out_features=1, bias=True)
    )
  )
)


Details:
DVN_wrapper(
  (dvn): DVN(
    (pre_encoder): PreEncoderConcatSelectedOneHotAndMLP(
      (lap_encoder_q): LapPENodeEncoder(
        (linear_A): Linear(in_features=2, out_features=32, bias=True)
        (pe_encoder): Sequential(
          (0): ReLU()
          (1): Linear(in_features=32, out_features=16, bias=True)
          (2): ReLU()
        )
      )
      (lap_encoder_t): LapPENodeEncoder(
        (linear_A): Linear(in_features=2, out_features=32, bias=True)
        (pe_encoder): Sequential(
          (0): ReLU()
          (1): Linear(in_features=32, out_features=16, bias=True)
          (2): ReLU()
        )
      )
      (mlp_q): Linear(in_features=29, out_features=16, bias=True)
      (mlp_t): Linear(in_features=29, out_features=16, bias=True)
    )
    (encoder): GNNConsensusEncoder(
      (gnn_wrapper_li): ModuleList(
        (0-3): 4 x GNNWrapper(
          (gnnm): OurGMNCustomWrapper(
            (gmn_inter): OurGMNCustomInter(
              (transformer_conv): TransformerConv(32, 32, heads=4)
            )
            (gmn_intra): OurGMNCustomIntra(
              (gnn_t): GPSLayer(
                summary: dim_h=32, local_gnn_type=CustomGatedGCN, global_model_type=Transformer, heads=4
                (local_model): GatedGCNLayer()
                (self_attn): MultiheadAttention(
                  (out_proj): NonDynamicallyQuantizableLinear(in_features=32, out_features=32, bias=True)
                )
                (norm1_local): LayerNorm(32, affine=True, mode=graph)
                (norm1_attn): LayerNorm(32, affine=True, mode=graph)
                (dropout_local): Dropout(p=0.0, inplace=False)
                (dropout_attn): Dropout(p=0.0, inplace=False)
                (ff_linear1): Linear(in_features=32, out_features=64, bias=True)
                (ff_linear2): Linear(in_features=64, out_features=32, bias=True)
                (act_fn_ff): ReLU()
                (norm2): LayerNorm(32, affine=True, mode=graph)
                (ff_dropout1): Dropout(p=0.0, inplace=False)
                (ff_dropout2): Dropout(p=0.0, inplace=False)
              )
              (gnn_q): GPSLayer(
                summary: dim_h=32, local_gnn_type=CustomGatedGCN, global_model_type=Transformer, heads=4
                (local_model): GatedGCNLayer()
                (self_attn): MultiheadAttention(
                  (out_proj): NonDynamicallyQuantizableLinear(in_features=32, out_features=32, bias=True)
                )
                (norm1_local): LayerNorm(32, affine=True, mode=graph)
                (norm1_attn): LayerNorm(32, affine=True, mode=graph)
                (dropout_local): Dropout(p=0.0, inplace=False)
                (dropout_attn): Dropout(p=0.0, inplace=False)
                (ff_linear1): Linear(in_features=32, out_features=64, bias=True)
                (ff_linear2): Linear(in_features=64, out_features=32, bias=True)
                (act_fn_ff): ReLU()
                (norm2): LayerNorm(32, affine=True, mode=graph)
                (ff_dropout1): Dropout(p=0.0, inplace=False)
                (ff_dropout2): Dropout(p=0.0, inplace=False)
              )
            )
          )
        )
      )
      (jk): JumpingKnowledge(max)
    )
    (gt_egde_encoder): DummyEdgeEncoder(
      (encoder): Embedding(1, 32)
    )
    (gq_egde_encoder): DummyEdgeEncoder(
      (encoder): Embedding(1, 32)
    )
    (decoder_policy): BilinearDecoder(
      (encoder): MLP(
        (activation): ELU(alpha=1.0)
        (layers): ModuleList(
          (0): Linear(in_features=32, out_features=32, bias=True)
        )
      )
      (decoder): MLP(
        (activation): ELU(alpha=1.0)
        (layers): ModuleList(
          (0): Linear(in_features=96, out_features=32, bias=True)
          (1): Linear(in_features=32, out_features=16, bias=True)
          (2): Linear(in_features=16, out_features=8, bias=True)
          (3): Linear(in_features=8, out_features=1, bias=True)
        )
      )
    )
    (decoder_value): QueryDecoder(
      (mlp_att): MLP(
        (activation): ELU(alpha=1.0)
        (layers): ModuleList(
          (0): Linear(in_features=32, out_features=8, bias=True)
          (1): Linear(in_features=8, out_features=1, bias=True)
        )
      )
      (mlp_val): MLP(
        (activation): ELU(alpha=1.0)
        (layers): ModuleList(
          (0): Linear(in_features=32, out_features=32, bias=True)
        )
      )
      (mlp_final): MLP(
        (activation): ELU(alpha=1.0)
        (layers): ModuleList(
          (0): Linear(in_features=32, out_features=32, bias=True)
          (1): Linear(in_features=32, out_features=16, bias=True)
          (2): Linear(in_features=16, out_features=8, bias=True)
          (3): Linear(in_features=8, out_features=4, bias=True)
          (4): Linear(in_features=4, out_features=1, bias=True)
        )
      )
      (norm): NormalizeAttention()
    )
    (norm_li): ModuleList(
      (0-3): 4 x LayerNorm((32,), eps=1e-05, elementwise_affine=True)
    )
  )
  (mlp_final): MLP(
    (activation): ELU(alpha=1.0)
    (layers): ModuleList(
      (0): Linear(in_features=64, out_features=32, bias=True)
      (1): Linear(in_features=32, out_features=16, bias=True)
      (2): Linear(in_features=16, out_features=8, bias=True)
      (3): Linear(in_features=8, out_features=4, bias=True)
      (4): Linear(in_features=4, out_features=1, bias=True)
    )
  )
)

dvn
DVN(
  (pre_encoder): PreEncoderConcatSelectedOneHotAndMLP(
    (lap_encoder_q): LapPENodeEncoder(
      (linear_A): Linear(in_features=2, out_features=32, bias=True)
      (pe_encoder): Sequential(
        (0): ReLU()
        (1): Linear(in_features=32, out_features=16, bias=True)
        (2): ReLU()
      )
    )
    (lap_encoder_t): LapPENodeEncoder(
      (linear_A): Linear(in_features=2, out_features=32, bias=True)
      (pe_encoder): Sequential(
        (0): ReLU()
        (1): Linear(in_features=32, out_features=16, bias=True)
        (2): ReLU()
      )
    )
    (mlp_q): Linear(in_features=29, out_features=16, bias=True)
    (mlp_t): Linear(in_features=29, out_features=16, bias=True)
  )
  (encoder): GNNConsensusEncoder(
    (gnn_wrapper_li): ModuleList(
      (0-3): 4 x GNNWrapper(
        (gnnm): OurGMNCustomWrapper(
          (gmn_inter): OurGMNCustomInter(
            (transformer_conv): TransformerConv(32, 32, heads=4)
          )
          (gmn_intra): OurGMNCustomIntra(
            (gnn_t): GPSLayer(
              summary: dim_h=32, local_gnn_type=CustomGatedGCN, global_model_type=Transformer, heads=4
              (local_model): GatedGCNLayer()
              (self_attn): MultiheadAttention(
                (out_proj): NonDynamicallyQuantizableLinear(in_features=32, out_features=32, bias=True)
              )
              (norm1_local): LayerNorm(32, affine=True, mode=graph)
              (norm1_attn): LayerNorm(32, affine=True, mode=graph)
              (dropout_local): Dropout(p=0.0, inplace=False)
              (dropout_attn): Dropout(p=0.0, inplace=False)
              (ff_linear1): Linear(in_features=32, out_features=64, bias=True)
              (ff_linear2): Linear(in_features=64, out_features=32, bias=True)
              (act_fn_ff): ReLU()
              (norm2): LayerNorm(32, affine=True, mode=graph)
              (ff_dropout1): Dropout(p=0.0, inplace=False)
              (ff_dropout2): Dropout(p=0.0, inplace=False)
            )
            (gnn_q): GPSLayer(
              summary: dim_h=32, local_gnn_type=CustomGatedGCN, global_model_type=Transformer, heads=4
              (local_model): GatedGCNLayer()
              (self_attn): MultiheadAttention(
                (out_proj): NonDynamicallyQuantizableLinear(in_features=32, out_features=32, bias=True)
              )
              (norm1_local): LayerNorm(32, affine=True, mode=graph)
              (norm1_attn): LayerNorm(32, affine=True, mode=graph)
              (dropout_local): Dropout(p=0.0, inplace=False)
              (dropout_attn): Dropout(p=0.0, inplace=False)
              (ff_linear1): Linear(in_features=32, out_features=64, bias=True)
              (ff_linear2): Linear(in_features=64, out_features=32, bias=True)
              (act_fn_ff): ReLU()
              (norm2): LayerNorm(32, affine=True, mode=graph)
              (ff_dropout1): Dropout(p=0.0, inplace=False)
              (ff_dropout2): Dropout(p=0.0, inplace=False)
            )
          )
        )
      )
    )
    (jk): JumpingKnowledge(max)
  )
  (gt_egde_encoder): DummyEdgeEncoder(
    (encoder): Embedding(1, 32)
  )
  (gq_egde_encoder): DummyEdgeEncoder(
    (encoder): Embedding(1, 32)
  )
  (decoder_policy): BilinearDecoder(
    (encoder): MLP(
      (activation): ELU(alpha=1.0)
      (layers): ModuleList(
        (0): Linear(in_features=32, out_features=32, bias=True)
      )
    )
    (decoder): MLP(
      (activation): ELU(alpha=1.0)
      (layers): ModuleList(
        (0): Linear(in_features=96, out_features=32, bias=True)
        (1): Linear(in_features=32, out_features=16, bias=True)
        (2): Linear(in_features=16, out_features=8, bias=True)
        (3): Linear(in_features=8, out_features=1, bias=True)
      )
    )
  )
  (decoder_value): QueryDecoder(
    (mlp_att): MLP(
      (activation): ELU(alpha=1.0)
      (layers): ModuleList(
        (0): Linear(in_features=32, out_features=8, bias=True)
        (1): Linear(in_features=8, out_features=1, bias=True)
      )
    )
    (mlp_val): MLP(
      (activation): ELU(alpha=1.0)
      (layers): ModuleList(
        (0): Linear(in_features=32, out_features=32, bias=True)
      )
    )
    (mlp_final): MLP(
      (activation): ELU(alpha=1.0)
      (layers): ModuleList(
        (0): Linear(in_features=32, out_features=32, bias=True)
        (1): Linear(in_features=32, out_features=16, bias=True)
        (2): Linear(in_features=16, out_features=8, bias=True)
        (3): Linear(in_features=8, out_features=4, bias=True)
        (4): Linear(in_features=4, out_features=1, bias=True)
      )
    )
    (norm): NormalizeAttention()
  )
  (norm_li): ModuleList(
    (0-3): 4 x LayerNorm((32,), eps=1e-05, elementwise_affine=True)
  )
)

dvn.pre_encoder
PreEncoderConcatSelectedOneHotAndMLP(
  (lap_encoder_q): LapPENodeEncoder(
    (linear_A): Linear(in_features=2, out_features=32, bias=True)
    (pe_encoder): Sequential(
      (0): ReLU()
      (1): Linear(in_features=32, out_features=16, bias=True)
      (2): ReLU()
    )
  )
  (lap_encoder_t): LapPENodeEncoder(
    (linear_A): Linear(in_features=2, out_features=32, bias=True)
    (pe_encoder): Sequential(
      (0): ReLU()
      (1): Linear(in_features=32, out_features=16, bias=True)
      (2): ReLU()
    )
  )
  (mlp_q): Linear(in_features=29, out_features=16, bias=True)
  (mlp_t): Linear(in_features=29, out_features=16, bias=True)
)

dvn.pre_encoder.lap_encoder_q
LapPENodeEncoder(
  (linear_A): Linear(in_features=2, out_features=32, bias=True)
  (pe_encoder): Sequential(
    (0): ReLU()
    (1): Linear(in_features=32, out_features=16, bias=True)
    (2): ReLU()
  )
)

dvn.pre_encoder.lap_encoder_q.linear_A
Linear(in_features=2, out_features=32, bias=True)

dvn.pre_encoder.lap_encoder_q.pe_encoder
Sequential(
  (0): ReLU()
  (1): Linear(in_features=32, out_features=16, bias=True)
  (2): ReLU()
)

dvn.pre_encoder.lap_encoder_q.pe_encoder.0
ReLU()

dvn.pre_encoder.lap_encoder_q.pe_encoder.1
Linear(in_features=32, out_features=16, bias=True)

dvn.pre_encoder.lap_encoder_q.pe_encoder.2
ReLU()

dvn.pre_encoder.lap_encoder_t
LapPENodeEncoder(
  (linear_A): Linear(in_features=2, out_features=32, bias=True)
  (pe_encoder): Sequential(
    (0): ReLU()
    (1): Linear(in_features=32, out_features=16, bias=True)
    (2): ReLU()
  )
)

dvn.pre_encoder.lap_encoder_t.linear_A
Linear(in_features=2, out_features=32, bias=True)

dvn.pre_encoder.lap_encoder_t.pe_encoder
Sequential(
  (0): ReLU()
  (1): Linear(in_features=32, out_features=16, bias=True)
  (2): ReLU()
)

dvn.pre_encoder.lap_encoder_t.pe_encoder.0
ReLU()

dvn.pre_encoder.lap_encoder_t.pe_encoder.1
Linear(in_features=32, out_features=16, bias=True)

dvn.pre_encoder.lap_encoder_t.pe_encoder.2
ReLU()

dvn.pre_encoder.mlp_q
Linear(in_features=29, out_features=16, bias=True)

dvn.pre_encoder.mlp_t
Linear(in_features=29, out_features=16, bias=True)
…
  (gnn_wrapper_li): ModuleList(
    (0-3): 4 x GNNWrapper(
      (gnnm): OurGMNCustomWrapper(
        (gmn_inter): OurGMNCustomInter(
          (transformer_conv): TransformerConv(32, 32, heads=4)
        )
        (gmn_intra): OurGMNCustomIntra(
          (gnn_t): GPSLayer(
            summary: dim_h=32, local_gnn_type=CustomGatedGCN, global_model_type=Transformer, heads=4
            (local_model): GatedGCNLayer()
            (self_attn): MultiheadAttention(
              (out_proj): NonDynamicallyQuantizableLinear(in_features=32, out_features=32, bias=True)
            )
            (norm1_local): LayerNorm(32, affine=True, mode=graph)
            (norm1_attn): LayerNorm(32, affine=True, mode=graph)
            (dropout_local): Dropout(p=0.0, inplace=False)
            (dropout_attn): Dropout(p=0.0, inplace=False)
            (ff_linear1): Linear(in_features=32, out_features=64, bias=True)
            (ff_linear2): Linear(in_features=64, out_features=32, bias=True)
            (act_fn_ff): ReLU()
            (norm2): LayerNorm(32, affine=True, mode=graph)
            (ff_dropout1): Dropout(p=0.0, inplace=False)
            (ff_dropout2): Dropout(p=0.0, inplace=False)
          )
          (gnn_q): GPSLayer(
            summary: dim_h=32, local_gnn_type=CustomGatedGCN, global_model_type=Transformer, heads=4
            (local_model): GatedGCNLayer()
            (self_attn): MultiheadAttention(
              (out_proj): NonDynamicallyQuantizableLinear(in_features=32, out_features=32, bias=True)
            )
            (norm1_local): LayerNorm(32, affine=True, mode=graph)
            (norm1_attn): LayerNorm(32, affine=True, mode=graph)
            (dropout_local): Dropout(p=0.0, inplace=False)
            (dropout_attn): Dropout(p=0.0, inplace=False)
            (ff_linear1): Linear(in_features=32, out_features=64, bias=True)
            (ff_linear2): Linear(in_features=64, out_features=32, bias=True)
            (act_fn_ff): ReLU()
            (norm2): LayerNorm(32, affine=True, mode=graph)
            (ff_dropout1): Dropout(p=0.0, inplace=False)
            (ff_dropout2): Dropout(p=0.0, inplace=False)
          )
        )
      )
    )
  )
  (jk): JumpingKnowledge(max)
)

dvn.encoder.gnn_wrapper_li
ModuleList(
  (0-3): 4 x GNNWrapper(
    (gnnm): OurGMNCustomWrapper(
      (gmn_inter): OurGMNCustomInter(
        (transformer_conv): TransformerConv(32, 32, heads=4)
      )
      (gmn_intra): OurGMNCustomIntra(
        (gnn_t): GPSLayer(
          summary: dim_h=32, local_gnn_type=CustomGatedGCN, global_model_type=Transformer, heads=4
          (local_model): GatedGCNLayer()
          (self_attn): MultiheadAttention(
            (out_proj): NonDynamicallyQuantizableLinear(in_features=32, out_features=32, bias=True)
          )
          (norm1_local): LayerNorm(32, affine=True, mode=graph)
          (norm1_attn): LayerNorm(32, affine=True, mode=graph)
          (dropout_local): Dropout(p=0.0, inplace=False)
          (dropout_attn): Dropout(p=0.0, inplace=False)
          (ff_linear1): Linear(in_features=32, out_features=64, bias=True)
          (ff_linear2): Linear(in_features=64, out_features=32, bias=True)
          (act_fn_ff): ReLU()
          (norm2): LayerNorm(32, affine=True, mode=graph)
          (ff_dropout1): Dropout(p=0.0, inplace=False)
          (ff_dropout2): Dropout(p=0.0, inplace=False)
        )
        (gnn_q): GPSLayer(
          summary: dim_h=32, local_gnn_type=CustomGatedGCN, global_model_type=Transformer, heads=4
          (local_model): GatedGCNLayer()
          (self_attn): MultiheadAttention(
            (out_proj): NonDynamicallyQuantizableLinear(in_features=32, out_features=32, bias=True)
          )
          (norm1_local): LayerNorm(32, affine=True, mode=graph)
          (norm1_attn): LayerNorm(32, affine=True, mode=graph)
          (dropout_local): Dropout(p=0.0, inplace=False)
          (dropout_attn): Dropout(p=0.0, inplace=False)
          (ff_linear1): Linear(in_features=32, out_features=64, bias=True)
          (ff_linear2): Linear(in_features=64, out_features=32, bias=True)
          (act_fn_ff): ReLU()
          (norm2): LayerNorm(32, affine=True, mode=graph)
          (ff_dropout1): Dropout(p=0.0, inplace=False)
          (ff_dropout2): Dropout(p=0.0, inplace=False)
        )
      )
    )
  )
)

dvn.encoder.gnn_wrapper_li.0
GNNWrapper(
  (gnnm): OurGMNCustomWrapper(
    (gmn_inter): OurGMNCustomInter(
      (transformer_conv): TransformerConv(32, 32, heads=4)
    )
    (gmn_intra): OurGMNCustomIntra(
      (gnn_t): GPSLayer(
        summary: dim_h=32, local_gnn_type=CustomGatedGCN, global_model_type=Transformer, heads=4
        (local_model): GatedGCNLayer()
        (self_attn): MultiheadAttention(
          (out_proj): NonDynamicallyQuantizableLinear(in_features=32, out_features=32, bias=True)
        )
        (norm1_local): LayerNorm(32, affine=True, mode=graph)
        (norm1_attn): LayerNorm(32, affine=True, mode=graph)
        (dropout_local): Dropout(p=0.0, inplace=False)
        (dropout_attn): Dropout(p=0.0, inplace=False)
        (ff_linear1): Linear(in_features=32, out_features=64, bias=True)
        (ff_linear2): Linear(in_features=64, out_features=32, bias=True)
        (act_fn_ff): ReLU()
        (norm2): LayerNorm(32, affine=True, mode=graph)
        (ff_dropout1): Dropout(p=0.0, inplace=False)
        (ff_dropout2): Dropout(p=0.0, inplace=False)
      )
      (gnn_q): GPSLayer(
        summary: dim_h=32, local_gnn_type=CustomGatedGCN, global_model_type=Transformer, heads=4
        (local_model): GatedGCNLayer()
        (self_attn): MultiheadAttention(
          (out_proj): NonDynamicallyQuantizableLinear(in_features=32, out_features=32, bias=True)
        )
        (norm1_local): LayerNorm(32, affine=True, mode=graph)
        (norm1_attn): LayerNorm(32, affine=True, mode=graph)
        (dropout_local): Dropout(p=0.0, inplace=False)
        (dropout_attn): Dropout(p=0.0, inplace=False)
        (ff_linear1): Linear(in_features=32, out_features=64, bias=True)
        (ff_linear2): Linear(in_features=64, out_features=32, bias=True)
        (act_fn_ff): ReLU()
        (norm2): LayerNorm(32, affine=True, mode=graph)
        (ff_dropout1): Dropout(p=0.0, inplace=False)
        (ff_dropout2): Dropout(p=0.0, inplace=False)
      )
    )
  )
)

dvn.encoder.gnn_wrapper_li.0.gnnm
OurGMNCustomWrapper(
  (gmn_inter): OurGMNCustomInter(
    (transformer_conv): TransformerConv(32, 32, heads=4)
  )
  (gmn_intra): OurGMNCustomIntra(
    (gnn_t): GPSLayer(
      summary: dim_h=32, local_gnn_type=CustomGatedGCN, global_model_type=Transformer, heads=4
      (local_model): GatedGCNLayer()
      (self_attn): MultiheadAttention(
        (out_proj): NonDynamicallyQuantizableLinear(in_features=32, out_features=32, bias=True)
      )
      (norm1_local): LayerNorm(32, affine=True, mode=graph)
      (norm1_attn): LayerNorm(32, affine=True, mode=graph)
      (dropout_local): Dropout(p=0.0, inplace=False)
      (dropout_attn): Dropout(p=0.0, inplace=False)
      (ff_linear1): Linear(in_features=32, out_features=64, bias=True)
      (ff_linear2): Linear(in_features=64, out_features=32, bias=True)
      (act_fn_ff): ReLU()
      (norm2): LayerNorm(32, affine=True, mode=graph)
      (ff_dropout1): Dropout(p=0.0, inplace=False)
      (ff_dropout2): Dropout(p=0.0, inplace=False)
    )
    (gnn_q): GPSLayer(
      summary: dim_h=32, local_gnn_type=CustomGatedGCN, global_model_type=Transformer, heads=4
      (local_model): GatedGCNLayer()
      (self_attn): MultiheadAttention(
        (out_proj): NonDynamicallyQuantizableLinear(in_features=32, out_features=32, bias=True)
      )
      (norm1_local): LayerNorm(32, affine=True, mode=graph)
      (norm1_attn): LayerNorm(32, affine=True, mode=graph)
      (dropout_local): Dropout(p=0.0, inplace=False)
      (dropout_attn): Dropout(p=0.0, inplace=False)
      (ff_linear1): Linear(in_features=32, out_features=64, bias=True)
      (ff_linear2): Linear(in_features=64, out_features=32, bias=True)
      (act_fn_ff): ReLU()
      (norm2): LayerNorm(32, affine=True, mode=graph)
      (ff_dropout1): Dropout(p=0.0, inplace=False)
      (ff_dropout2): Dropout(p=0.0, inplace=False)
    )
  )
)

dvn.encoder.gnn_wrapper_li.0.gnnm.gmn_inter
OurGMNCustomInter(
  (transformer_conv): TransformerConv(32, 32, heads=4)
)

dvn.encoder.gnn_wrapper_li.0.gnnm.gmn_inter.transformer_conv
TransformerConv(32, 32, heads=4)

dvn.encoder.gnn_wrapper_li.0.gnnm.gmn_inter.transformer_conv.aggr_module
…
dvn.encoder.gnn_wrapper_li.0.gnnm.gmn_inter.transformer_conv.lin_query
Linear(32, 128, bias=True)

dvn.encoder.gnn_wrapper_li.0.gnnm.gmn_inter.transformer_conv.lin_value
Linear(32, 128, bias=True)

dvn.encoder.gnn_wrapper_li.0.gnnm.gmn_inter.transformer_conv.lin_skip
Linear(32, 32, bias=True)

dvn.encoder.gnn_wrapper_li.0.gnnm.gmn_intra
OurGMNCustomIntra(
  (gnn_t): GPSLayer(
    summary: dim_h=32, local_gnn_type=CustomGatedGCN, global_model_type=Transformer, heads=4
    (local_model): GatedGCNLayer()
    (self_attn): MultiheadAttention(
      (out_proj): NonDynamicallyQuantizableLinear(in_features=32, out_features=32, bias=True)
    )
    (norm1_local): LayerNorm(32, affine=True, mode=graph)
    (norm1_attn): LayerNorm(32, affine=True, mode=graph)
    (dropout_local): Dropout(p=0.0, inplace=False)
    (dropout_attn): Dropout(p=0.0, inplace=False)
    (ff_linear1): Linear(in_features=32, out_features=64, bias=True)
    (ff_linear2): Linear(in_features=64, out_features=32, bias=True)
    (act_fn_ff): ReLU()
    (norm2): LayerNorm(32, affine=True, mode=graph)
    (ff_dropout1): Dropout(p=0.0, inplace=False)
    (ff_dropout2): Dropout(p=0.0, inplace=False)
  )
  (gnn_q): GPSLayer(
    summary: dim_h=32, local_gnn_type=CustomGatedGCN, global_model_type=Transformer, heads=4
    (local_model): GatedGCNLayer()
    (self_attn): MultiheadAttention(
      (out_proj): NonDynamicallyQuantizableLinear(in_features=32, out_features=32, bias=True)
    )
    (norm1_local): LayerNorm(32, affine=True, mode=graph)
    (norm1_attn): LayerNorm(32, affine=True, mode=graph)
    (dropout_local): Dropout(p=0.0, inplace=False)
    (dropout_attn): Dropout(p=0.0, inplace=False)
    (ff_linear1): Linear(in_features=32, out_features=64, bias=True)
    (ff_linear2): Linear(in_features=64, out_features=32, bias=True)
    (act_fn_ff): ReLU()
    (norm2): LayerNorm(32, affine=True, mode=graph)
    (ff_dropout1): Dropout(p=0.0, inplace=False)
    (ff_dropout2): Dropout(p=0.0, inplace=False)
  )
)

dvn.encoder.gnn_wrapper_li.0.gnnm.gmn_intra.gnn_t
GPSLayer(
  summary: dim_h=32, local_gnn_type=CustomGatedGCN, global_model_type=Transformer, heads=4
  (local_model): GatedGCNLayer()
  (self_attn): MultiheadAttention(
    (out_proj): NonDynamicallyQuantizableLinear(in_features=32, out_features=32, bias=True)
  )
  (norm1_local): LayerNorm(32, affine=True, mode=graph)
  (norm1_attn): LayerNorm(32, affine=True, mode=graph)
  (dropout_local): Dropout(p=0.0, inplace=False)
  (dropout_attn): Dropout(p=0.0, inplace=False)
  (ff_linear1): Linear(in_features=32, out_features=64, bias=True)
  (ff_linear2): Linear(in_features=64, out_features=32, bias=True)
  (act_fn_ff): ReLU()
  (norm2): LayerNorm(32, affine=True, mode=graph)
  (ff_dropout1): Dropout(p=0.0, inplace=False)
  (ff_dropout2): Dropout(p=0.0, inplace=False)
)

dvn.encoder.gnn_wrapper_li.0.gnnm.gmn_intra.gnn_t.local_model
GatedGCNLayer()

dvn.encoder.gnn_wrapper_li.0.gnnm.gmn_intra.gnn_t.local_model.aggr_module
SumAggregation()

dvn.encoder.gnn_wrapper_li.0.gnnm.gmn_intra.gnn_t.local_model.A
Linear(32, 32, bias=True)

dvn.encoder.gnn_wrapper_li.0.gnnm.gmn_intra.gnn_t.local_model.B
…
dvn.encoder.gnn_wrapper_li.0.gnnm.gmn_intra.gnn_t.norm2
LayerNorm(32, affine=True, mode=graph)

dvn.encoder.gnn_wrapper_li.0.gnnm.gmn_intra.gnn_t.ff_dropout1
Dropout(p=0.0, inplace=False)

dvn.encoder.gnn_wrapper_li.0.gnnm.gmn_intra.gnn_t.ff_dropout2
Dropout(p=0.0, inplace=False)

dvn.encoder.gnn_wrapper_li.0.gnnm.gmn_intra.gnn_q
GPSLayer(
  summary: dim_h=32, local_gnn_type=CustomGatedGCN, global_model_type=Transformer, heads=4
  (local_model): GatedGCNLayer()
  (self_attn): MultiheadAttention(
    (out_proj): NonDynamicallyQuantizableLinear(in_features=32, out_features=32, bias=True)
  )
  (norm1_local): LayerNorm(32, affine=True, mode=graph)
  (norm1_attn): LayerNorm(32, affine=True, mode=graph)
  (dropout_local): Dropout(p=0.0, inplace=False)
  (dropout_attn): Dropout(p=0.0, inplace=False)
  (ff_linear1): Linear(in_features=32, out_features=64, bias=True)
  (ff_linear2): Linear(in_features=64, out_features=32, bias=True)
  (act_fn_ff): ReLU()
  (norm2): LayerNorm(32, affine=True, mode=graph)
  (ff_dropout1): Dropout(p=0.0, inplace=False)
  (ff_dropout2): Dropout(p=0.0, inplace=False)
)

dvn.encoder.gnn_wrapper_li.0.gnnm.gmn_intra.gnn_q.local_model
GatedGCNLayer()

dvn.encoder.gnn_wrapper_li.0.gnnm.gmn_intra.gnn_q.local_model.aggr_module
SumAggregation()

dvn.encoder.gnn_wrapper_li.0.gnnm.gmn_intra.gnn_q.local_model.A
Linear(32, 32, bias=True)

dvn.encoder.gnn_wrapper_li.0.gnnm.gmn_intra.gnn_q.local_model.B
…
dvn.encoder.gnn_wrapper_li.0.gnnm.gmn_intra.gnn_q.ff_dropout2
Dropout(p=0.0, inplace=False)

dvn.encoder.gnn_wrapper_li.1
GNNWrapper(
  (gnnm): OurGMNCustomWrapper(
    (gmn_inter): OurGMNCustomInter(
      (transformer_conv): TransformerConv(32, 32, heads=4)
    )
    (gmn_intra): OurGMNCustomIntra(
      (gnn_t): GPSLayer(
        summary: dim_h=32, local_gnn_type=CustomGatedGCN, global_model_type=Transformer, heads=4
        (local_model): GatedGCNLayer()
        (self_attn): MultiheadAttention(
          (out_proj): NonDynamicallyQuantizableLinear(in_features=32, out_features=32, bias=True)
        )
        (norm1_local): LayerNorm(32, affine=True, mode=graph)
        (norm1_attn): LayerNorm(32, affine=True, mode=graph)
        (dropout_local): Dropout(p=0.0, inplace=False)
        (dropout_attn): Dropout(p=0.0, inplace=False)
        (ff_linear1): Linear(in_features=32, out_features=64, bias=True)
        (ff_linear2): Linear(in_features=64, out_features=32, bias=True)
        (act_fn_ff): ReLU()
        (norm2): LayerNorm(32, affine=True, mode=graph)
        (ff_dropout1): Dropout(p=0.0, inplace=False)
        (ff_dropout2): Dropout(p=0.0, inplace=False)
      )
      (gnn_q): GPSLayer(
        summary: dim_h=32, local_gnn_type=CustomGatedGCN, global_model_type=Transformer, heads=4
        (local_model): GatedGCNLayer()
        (self_attn): MultiheadAttention(
          (out_proj): NonDynamicallyQuantizableLinear(in_features=32, out_features=32, bias=True)
        )
        (norm1_local): LayerNorm(32, affine=True, mode=graph)
        (norm1_attn): LayerNorm(32, affine=True, mode=graph)
        (dropout_local): Dropout(p=0.0, inplace=False)
        (dropout_attn): Dropout(p=0.0, inplace=False)
        (ff_linear1): Linear(in_features=32, out_features=64, bias=True)
        (ff_linear2): Linear(in_features=64, out_features=32, bias=True)
        (act_fn_ff): ReLU()
        (norm2): LayerNorm(32, affine=True, mode=graph)
        (ff_dropout1): Dropout(p=0.0, inplace=False)
        (ff_dropout2): Dropout(p=0.0, inplace=False)
      )
    )
  )
)

dvn.encoder.gnn_wrapper_li.1.gnnm
OurGMNCustomWrapper(
  (gmn_inter): OurGMNCustomInter(
    (transformer_conv): TransformerConv(32, 32, heads=4)
  )
  (gmn_intra): OurGMNCustomIntra(
    (gnn_t): GPSLayer(
      summary: dim_h=32, local_gnn_type=CustomGatedGCN, global_model_type=Transformer, heads=4
      (local_model): GatedGCNLayer()
      (self_attn): MultiheadAttention(
        (out_proj): NonDynamicallyQuantizableLinear(in_features=32, out_features=32, bias=True)
      )
      (norm1_local): LayerNorm(32, affine=True, mode=graph)
      (norm1_attn): LayerNorm(32, affine=True, mode=graph)
      (dropout_local): Dropout(p=0.0, inplace=False)
      (dropout_attn): Dropout(p=0.0, inplace=False)
      (ff_linear1): Linear(in_features=32, out_features=64, bias=True)
      (ff_linear2): Linear(in_features=64, out_features=32, bias=True)
      (act_fn_ff): ReLU()
      (norm2): LayerNorm(32, affine=True, mode=graph)
      (ff_dropout1): Dropout(p=0.0, inplace=False)
      (ff_dropout2): Dropout(p=0.0, inplace=False)
    )
    (gnn_q): GPSLayer(
      summary: dim_h=32, local_gnn_type=CustomGatedGCN, global_model_type=Transformer, heads=4
      (local_model): GatedGCNLayer()
      (self_attn): MultiheadAttention(
        (out_proj): NonDynamicallyQuantizableLinear(in_features=32, out_features=32, bias=True)
      )
      (norm1_local): LayerNorm(32, affine=True, mode=graph)
      (norm1_attn): LayerNorm(32, affine=True, mode=graph)
      (dropout_local): Dropout(p=0.0, inplace=False)
      (dropout_attn): Dropout(p=0.0, inplace=False)
      (ff_linear1): Linear(in_features=32, out_features=64, bias=True)
      (ff_linear2): Linear(in_features=64, out_features=32, bias=True)
      (act_fn_ff): ReLU()
      (norm2): LayerNorm(32, affine=True, mode=graph)
      (ff_dropout1): Dropout(p=0.0, inplace=False)
      (ff_dropout2): Dropout(p=0.0, inplace=False)
    )
  )
)

dvn.encoder.gnn_wrapper_li.1.gnnm.gmn_inter
OurGMNCustomInter(
  (transformer_conv): TransformerConv(32, 32, heads=4)
)

dvn.encoder.gnn_wrapper_li.1.gnnm.gmn_inter.transformer_conv
TransformerConv(32, 32, heads=4)

dvn.encoder.gnn_wrapper_li.1.gnnm.gmn_inter.transformer_conv.aggr_module
…
Linear(in_features=32, out_features=64, bias=True)

dvn.encoder.gnn_wrapper_li.3.gnnm.gmn_intra.gnn_q.ff_linear2
Linear(in_features=64, out_features=32, bias=True)

dvn.encoder.gnn_wrapper_li.3.gnnm.gmn_intra.gnn_q.act_fn_ff
ReLU()

dvn.encoder.gnn_wrapper_li.3.gnnm.gmn_intra.gnn_q.norm2
LayerNorm(32, affine=True, mode=graph)

dvn.encoder.gnn_wrapper_li.3.gnnm.gmn_intra.gnn_q.ff_dropout1
Dropout(p=0.0, inplace=False)

dvn.encoder.gnn_wrapper_li.3.gnnm.gmn_intra.gnn_q.ff_dropout2
Dropout(p=0.0, inplace=False)

dvn.encoder.jk
JumpingKnowledge(max)

dvn.gt_egde_encoder
DummyEdgeEncoder(
  (encoder): Embedding(1, 32)
)

dvn.gt_egde_encoder.encoder
Embedding(1, 32)

dvn.gq_egde_encoder
DummyEdgeEncoder(
  (encoder): Embedding(1, 32)
)

dvn.gq_egde_encoder.encoder
Embedding(1, 32)

dvn.decoder_policy
BilinearDecoder(
  (encoder): MLP(
    (activation): ELU(alpha=1.0)
    (layers): ModuleList(
      (0): Linear(in_features=32, out_features=32, bias=True)
    )
  )
  (decoder): MLP(
    (activation): ELU(alpha=1.0)
    (layers): ModuleList(
      (0): Linear(in_features=96, out_features=32, bias=True)
      (1): Linear(in_features=32, out_features=16, bias=True)
      (2): Linear(in_features=16, out_features=8, bias=True)
      (3): Linear(in_features=8, out_features=1, bias=True)
    )
  )
)

dvn.decoder_policy.encoder
MLP(
  (activation): ELU(alpha=1.0)
  (layers): ModuleList(
    (0): Linear(in_features=32, out_features=32, bias=True)
  )
)

dvn.decoder_policy.encoder.activation
ELU(alpha=1.0)

dvn.decoder_policy.encoder.layers
ModuleList(
  (0): Linear(in_features=32, out_features=32, bias=True)
)

dvn.decoder_policy.encoder.layers.0
Linear(in_features=32, out_features=32, bias=True)

dvn.decoder_policy.decoder
MLP(
  (activation): ELU(alpha=1.0)
  (layers): ModuleList(
    (0): Linear(in_features=96, out_features=32, bias=True)
    (1): Linear(in_features=32, out_features=16, bias=True)
    (2): Linear(in_features=16, out_features=8, bias=True)
    (3): Linear(in_features=8, out_features=1, bias=True)
  )
)

dvn.decoder_policy.decoder.activation
ELU(alpha=1.0)

dvn.decoder_policy.decoder.layers
ModuleList(
  (0): Linear(in_features=96, out_features=32, bias=True)
  (1): Linear(in_features=32, out_features=16, bias=True)
  (2): Linear(in_features=16, out_features=8, bias=True)
  (3): Linear(in_features=8, out_features=1, bias=True)
)

dvn.decoder_policy.decoder.layers.0
Linear(in_features=96, out_features=32, bias=True)

dvn.decoder_policy.decoder.layers.1
Linear(in_features=32, out_features=16, bias=True)

dvn.decoder_policy.decoder.layers.2
Linear(in_features=16, out_features=8, bias=True)

dvn.decoder_policy.decoder.layers.3
Linear(in_features=8, out_features=1, bias=True)

dvn.decoder_value
QueryDecoder(
  (mlp_att): MLP(
    (activation): ELU(alpha=1.0)
    (layers): ModuleList(
      (0): Linear(in_features=32, out_features=8, bias=True)
      (1): Linear(in_features=8, out_features=1, bias=True)
    )
  )
  (mlp_val): MLP(
    (activation): ELU(alpha=1.0)
    (layers): ModuleList(
      (0): Linear(in_features=32, out_features=32, bias=True)
    )
  )
  (mlp_final): MLP(
    (activation): ELU(alpha=1.0)
    (layers): ModuleList(
      (0): Linear(in_features=32, out_features=32, bias=True)
      (1): Linear(in_features=32, out_features=16, bias=True)
      (2): Linear(in_features=16, out_features=8, bias=True)
      (3): Linear(in_features=8, out_features=4, bias=True)
      (4): Linear(in_features=4, out_features=1, bias=True)
    )
  )
  (norm): NormalizeAttention()
)

dvn.decoder_value.mlp_att
MLP(
  (activation): ELU(alpha=1.0)
  (layers): ModuleList(
    (0): Linear(in_features=32, out_features=8, bias=True)
    (1): Linear(in_features=8, out_features=1, bias=True)
  )
)

dvn.decoder_value.mlp_att.activation
ELU(alpha=1.0)

dvn.decoder_value.mlp_att.layers
ModuleList(
  (0): Linear(in_features=32, out_features=8, bias=True)
  (1): Linear(in_features=8, out_features=1, bias=True)
)

dvn.decoder_value.mlp_att.layers.0
Linear(in_features=32, out_features=8, bias=True)

dvn.decoder_value.mlp_att.layers.1
Linear(in_features=8, out_features=1, bias=True)

dvn.decoder_value.mlp_val
MLP(
  (activation): ELU(alpha=1.0)
  (layers): ModuleList(
    (0): Linear(in_features=32, out_features=32, bias=True)
  )
)

dvn.decoder_value.mlp_val.activation
ELU(alpha=1.0)

dvn.decoder_value.mlp_val.layers
ModuleList(
  (0): Linear(in_features=32, out_features=32, bias=True)
)

dvn.decoder_value.mlp_val.layers.0
Linear(in_features=32, out_features=32, bias=True)

dvn.decoder_value.mlp_final
MLP(
  (activation): ELU(alpha=1.0)
  (layers): ModuleList(
    (0): Linear(in_features=32, out_features=32, bias=True)
    (1): Linear(in_features=32, out_features=16, bias=True)
    (2): Linear(in_features=16, out_features=8, bias=True)
    (3): Linear(in_features=8, out_features=4, bias=True)
    (4): Linear(in_features=4, out_features=1, bias=True)
  )
)

dvn.decoder_value.mlp_final.activation
ELU(alpha=1.0)

dvn.decoder_value.mlp_final.layers
ModuleList(
  (0): Linear(in_features=32, out_features=32, bias=True)
  (1): Linear(in_features=32, out_features=16, bias=True)
  (2): Linear(in_features=16, out_features=8, bias=True)
  (3): Linear(in_features=8, out_features=4, bias=True)
  (4): Linear(in_features=4, out_features=1, bias=True)
)

dvn.decoder_value.mlp_final.layers.0
Linear(in_features=32, out_features=32, bias=True)

dvn.decoder_value.mlp_final.layers.1
Linear(in_features=32, out_features=16, bias=True)

dvn.decoder_value.mlp_final.layers.2
